251_REINFORCE_LunarLander-V2.pth (torch, 40535 bytes, 6 tensors)

fc1.weight f4 [128, 8]
000000 06 2f 9f 3e 65 b4 a8 3e 56 0c 60 3e fd 87 a0 be
       0.31090564 0.3295013 0.21879706 -0.3135375
000010 c9 22 43 be 51 c5 9b 3e a3 e4 3e be cc 5a 35 3d
       -0.19056238 0.30423978 -0.18641905 0.044276044
000020 fe 6f 8f 3e 57 ac 62 3e f9 95 af be 42 91 bc 3d
       0.2801513 0.22136055 -0.34294108 0.09207393
000030 c8 96 92 3e 73 12 14 3e 99 19 85 3e 40 bb 52 3e
       0.28630662 0.14460163 0.25996092 0.20579243
000040 ba c7 09 3e c9 a0 4e be f9 e4 9c 3e 5a 1a 91 be
       0.13455096 -0.20178522 0.30643442 -0.28340417
000050 c2 f4 34 3e 9a 05 a3 3e 35 41 73 3e e2 b8 26 3d
       0.17671493 0.3184021 0.23755343 0.04070366
000060 17 4e 8d bd 49 94 85 3d 76 0a 06 be a3 e9 3c 3e
       -0.0689966 0.06522424 -0.13089928 0.184485
000070 8f b9 d9 3d 9d 76 33 be 8c d3 96 be 00 59 0b be
       0.106310956 -0.17525716 -0.29458272 -0.1360817
000080 55 7c 48 3b 98 f5 61 3e 15 25 42 3d ff 9c 3f be
       0.0030591686 0.22066343 0.047398645 -0.18712233
000090 b7 14 e3 be 5d 8b 12 be 43 58 39 bc ff f7 8e 3e
       -0.44351742 -0.14310975 -0.011312547 0.2792358
0000a0 15 6e d4 3d a9 4b 89 bc d3 8f 1b be ec 63 5b 3c
       0.10372559 -0.01675971 -0.15191583 0.013390522
0000b0 a3 b2 e4 3e 82 f0 2a 3c 25 d7 44 3e 88 68 9e 3e
       0.4466754 0.010433318 0.19222696 0.30939126
0000c0 97 3e b0 bc 1d d7 4c bd d2 4b 36 3e bf 69 53 be
       -0.02151422 -0.050009836 0.1780236 -0.20645808
0000d0 a7 bd 61 be f3 89 ee be ab 98 58 bd 36 f1 83 bd
       -0.22045003 -0.46589622 -0.05287997 -0.06442492
0000e0 f8 b6 35 3e be c4 b6 3e 91 e0 9e be 1b 5d b1 3e
       0.17745578 0.35696977 -0.31030706 0.34641346
0000f0 72 9c 8a 3e d5 61 0d bd 7e f7 73 bc 1c 8d 9c 3e
       0.27072483 -0.034517128 -0.01489055 0.30576408
000100 68 a5 07 3e 67 40 b0 3c cb eb 0a 3b 6d cd b4 be
       0.13246691 0.021515084 0.0021197672 -0.35312977
000110 48 cf dd 3e 63 b3 e8 3c 3c cf 25 be 19 6d 20 3d
       0.43322206 0.02840585 -0.16192335 0.039166544
000120 5f ed ac 3e b4 73 9e be 0e c8 db bd 8f 9c dd 3e
       0.3377485 -0.3094765 -0.10731517 0.43283507
000130 56 fb 2d 3d b9 aa 5d bd 0e 5b f4 3d 13 77 21 be
       0.04247602 -0.054117892 0.1193143 -0.1576808
000140 64 88 7d 3e c7 be bd bd fb c7 a1 be d4 fe bc bd
       0.2475906 -0.092649035 -0.31597885 -0.09228292
000150 3c ff ed 3e d3 b9 b8 3e 74 7f b7 3d b5 63 48 3e
       0.4648379 0.36079273 0.08959857 0.19569285
000160 6a e8 7c 3e c9 11 45 3e 97 1e 39 3e a9 01 e8 bc
       0.24698034 0.19245066 0.18078075 -0.028321104
000170 32 4a 83 3e 29 1f f9 bc 8f ad a4 3d 52 dc 56 3e
       0.25642544 -0.030410366 0.08040916 0.20982483
000180 d6 70 a9 3e 24 39 82 bd dc 19 49 3e 32 a8 48 be
       0.330939 -0.06358555 0.19638771 -0.19595411
000190 a0 cc e7 be f7 81 b9 be aa 26 a1 3e 50 bc b0 be
       -0.45273304 -0.36231968 0.3147481 -0.3451867
0001a0 b4 08 a0 3e f3 72 29 be 7a bc a3 3c 2a c7 9f 3e
       0.3125664 -0.16547756 0.019987334 0.31206638
0001b0 91 4b e6 3d c3 5c b5 3e f5 29 aa 3d 82 dc 8d 3e
       0.11244882 0.35422334 0.08308784 0.27707297
0001c0 7e c1 59 3e 5d fc b4 3e 48 62 77 be 12 9e 47 be
       0.21265218 0.35348788 -0.24158585 -0.19493893
0001d0 73 b7 91 3e c4 e1 26 3e b5 d2 7e 3e 94 92 b1 3e
       0.28460273 0.1629706 0.24885066 0.34682143
0001e0 cb e5 34 bd 23 ff a2 3e b4 47 5b be 80 37 0a 3e
       -0.04416446 0.3183528 -0.21414071 0.13497734
0001f0 d4 90 f7 3e 7a 46 7b 3e ac 3b 8e 3e 7c de 41 be
       0.48352683 0.24538603 0.277799 -0.18932527
000200 e3 f9 9a 3d 15 4a 0a be de ea ca bd f8 20 c5 be
       0.07567193 -0.13504823 -0.099080786 -0.38501716
000210 6c 0e ce 3e b6 6f db bd 06 69 93 be 5c 67 cb bd
       0.40245378 -0.107146665 -0.28791064 -0.099318236
000220 06 b3 97 be 9e fa bb be 74 c0 8c 3c 4f 2e f2 3d
       -0.29628772 -0.36714643 0.017181613 0.11825239
000230 c0 c9 88 3e 5a 35 3b bd 37 6b a6 3e f1 6f 96 3e
       0.26716423 -0.045705177 0.32503673 0.2938228
000240 34 ed 62 3e c1 a8 24 3e 0d ea 97 be bc 8d 46 be
       0.22160798 0.1608 -0.29670754 -0.19390005
000250 b7 5a dd 3e 7b b1 f6 3d aa 62 be be b8 f3 a1 3e
       0.43233272 0.120455705 -0.3718465 0.31631255
000260 2a 8b a8 be f7 97 80 be 40 89 9e be 43 c4 9f be
       -0.32918674 -0.2511594 -0.30964088 -0.31204423
000270 5b b8 d0 3e f8 e6 8d bd f5 76 a5 3e a8 df b1 be
       0.40765652 -0.069288194 0.3231732 -0.3474095
000280 48 2c 0a be a3 d6 11 be cf 29 48 be 63 77 dd be
       -0.13493454 -0.14242034 -0.19547199 -0.43255147
000290 8f 45 37 be 38 a3 9d 3e 66 90 49 ba 84 5e a0 3d
       -0.17897628 0.3078859 -0.00076890585 0.078305274
0002a0 d2 f6 c1 3e 99 9e 9c be 34 46 18 3e fe fe ae bd
       0.3788362 -0.3058975 0.1487053 -0.0854473
0002b0 f5 ac 88 be f4 bc 55 3e 3b 9f 0d be 5d 15 c8 3d
       -0.26694456 0.20872861 -0.13830273 0.097697
0002c0 91 e5 22 3c 55 a8 a4 3e b1 cf c6 3e 3a ec 28 3e
       0.009942428 0.32159677 0.3883033 0.16496363
0002d0 4b b6 57 3e c9 28 72 3c f1 03 d1 3e f9 6a 52 3e
       0.21065633 0.014780232 0.4082332 0.2054862
0002e0 ce 2e a0 3e 89 3a 85 3e 2a 90 b2 be 5f c0 dc be
       0.3128571 0.2602122 -0.34875613 -0.43115517
0002f0 0d 7f 47 be bf 4f 9f 3e 01 d4 66 3e 75 a2 72 3e
       -0.1948206 0.3111553 0.2254181 0.23694785
000300 37 1e 82 3e 4e 1b 84 3e 7c ad 00 3e 23 36 69 3c
       0.25413677 0.25802082 0.12566179 0.014234099
000310 68 e7 15 3e a4 63 b2 be 77 4b 29 39 54 40 c6 bd
       0.14639056 -0.34841645 0.00016145209 -0.09680238
000320 91 97 b1 bd a9 0e 8c 3e f1 1c a6 be ef f1 42 3e
       -0.08671487 0.27354935 -0.32443956 0.19037603
000330 88 2b 47 be 84 f1 7b be 8d c4 1d be 31 56 5a be
       -0.194502 -0.2460385 -0.1540701 -0.21321942
000340 85 7e ba be 0c 82 13 3d 04 69 1d 3d f4 68 d9 bd
       -0.36424652 0.036012694 0.03843023 -0.10615721
000350 03 24 05 3d 44 73 7c 3e e3 c2 3f bd d6 3d 36 3e
       0.032505047 0.24653345 -0.046816718 0.17797026
000360 a4 29 4a 3d 4d 63 a9 3e a0 db 49 be 6b 7f 68 3e
       0.049356118 0.33083573 -0.19712687 0.22704856
000370 e3 a5 61 bd 9f 91 90 3e 22 eb 9f 3e a2 c2 81 3e
       -0.055089843 0.282361 0.3123408 0.25343806
000380 96 5e 84 3e 49 f3 1d be 7e 7d 93 3d 83 f6 6e 3d
       0.25853413 -0.15424837 0.0720167 0.05834056
000390 73 59 d1 be e7 2d 43 be ef 3a a9 3e 23 50 f8 3d
       -0.40888557 -0.19060479 0.33052775 0.1212466
0003a0 e2 07 53 3e f0 87 ac 3e a2 89 ca be 4f 62 1b be
       0.20608476 0.33697462 -0.3955813 -0.1517422
0003b0 08 8d 7c 3d 8a 19 93 3e 5a 63 d1 3d e9 fb 80 bc
       0.061657935 0.28730422 0.10224028 -0.01574512
0003c0 cf 5b a2 be 25 34 53 bd ce 70 83 3d 53 3d a9 3e
       -0.3171067 -0.0515634 0.06418 0.330546
0003d0 03 bf 15 3e 52 4d f6 bc aa 4c e2 3e 0d 1e d7 3e
       0.14623646 -0.030066166 0.44199115 0.42015114
0003e0 a5 d2 0d be 1f 6b 88 3e a9 bd 37 3e ce c6 a8 be
       -0.13849886 0.26644227 0.17943443 -0.32964176
0003f0 10 d4 f4 bd dd ad cf be c4 fc 99 be c8 4b 20 be
       -0.1195451 -0.40562335 -0.30075657 -0.15653908

fc1.bias f4 [128]
000000 bb 5b e4 bd 8d 80 7e bd 33 5c e5 3d 6d ca f0 bd
       -0.11150309 -0.062134314 0.11199226 -0.1175736
000010 92 79 97 3d d7 18 9d 3e 0d 11 10 3e b4 6b ae 3e
       0.073962346 0.30683014 0.14069004 0.34066546
000020 76 7b 23 3e ac 1e 97 3e 26 31 90 3e 80 f2 74 3e
       0.15965065 0.29515588 0.28162497 0.23920631
000030 61 88 9b 3e 60 30 ab 3e 90 bd 8d be 30 57 f3 3d
       0.30377486 0.33435345 -0.27683687 0.11881864
000040 4c 03 f5 3d 52 e3 52 be 17 ed 52 3e 60 65 94 3e
       0.119635195 -0.20594528 0.20598255 0.28983593
000050 21 9a b1 3e 1b 36 9f 3e d2 ce 3b 3e 30 af 9c bc
       0.34687904 0.31095967 0.18340614 -0.019126505
000060 ee 1f 4e 3e b1 b6 85 be 65 c3 30 be 33 29 2c be
       0.20129368 -0.26115945 -0.17262037 -0.16812591
000070 15 26 a6 3e f0 52 f0 bd c2 9d 7a be 59 84 6c 3d
       0.3245093 -0.11734569 -0.24474242 0.057743404
000080 28 15 95 3e 4a 2a aa be c1 f4 5a 3d 3d 03 1b be
       0.29117703 -0.3323539 0.05345607 -0.15137954
000090 b5 7b 1c be 32 c4 ac 3d a1 2a 84 3e ba 81 4a 3e
       -0.15281565 0.08435859 0.25813773 0.1977605
0000a0 a7 1d c8 3c 96 31 90 3e d3 cd 51 3e db 50 72 3e
       0.024428202 0.2816283 0.20488672 0.23663656
0000b0 ad d1 67 3e 14 0f 86 bd e3 7a 1a 3e ea d0 dd 3d
       0.22638579 -0.06545845 0.1508594 0.10830863
0000c0 88 80 9f bd 0b 4f 8c be cc ad 14 be 2d d9 9d 3d
       -0.07788187 -0.27404055 -0.14519423 0.077074386
0000d0 cf 85 5d 3e 7a 1e 76 be ef 00 2b be 86 58 08 3e
       0.21633075 -0.24035063 -0.16699575 0.13315019
0000e0 f3 a3 8d 3e 4f b7 8f be 96 80 5b 3d c7 11 1a be
       0.27664146 -0.2806954 0.053589426 -0.15045844
0000f0 97 ef 67 be 43 27 c3 3d 03 eb 8c 3c 71 b0 1e 3e
       -0.2264999 0.09528973 0.017201906 0.15496995
000100 2b dd fe 3c bc f6 8d 3d 64 d4 2c bd 4f 73 6b be
       0.03111132 0.069318265 -0.04219474 -0.22993205
000110 8e da 38 3e 73 68 85 be a0 aa a6 3e 28 b4 81 3e
       0.18052122 -0.2605625 0.32552052 0.2533276
000120 cd 3b 63 3e 95 9d 8f 3d 46 99 57 3d 5c d7 2a 3e
       0.22190781 0.07012478 0.052636407 0.16683716
000130 1a 22 27 3e 40 0e 7b 3e 55 d7 2f be 5c 87 96 3d
       0.16321602 0.24517155 -0.17171986 0.073500365
000140 e6 74 21 3e 9e e7 93 be 1d 23 91 be 62 05 38 bc
       0.1576725 -0.28887647 -0.28347102 -0.011231752
000150 46 5f 97 3e c0 d3 8f 3d 75 c3 66 3e 40 9c a0 3d
       0.29564875 0.0702281 0.22535498 0.07842302
000160 ca 5c 7f bc 74 a6 45 be 92 75 0b 3e 7b 74 80 3d
       -0.0155860875 -0.19301778 0.13619068 0.06272217
000170 b4 ec 18 bb 66 7e 92 3d fa d7 9b be e4 2d 6e 3e
       -0.0023334445 0.07153015 -0.30438215 0.23259693
000180 a3 70 18 be 04 35 bd 3e c3 59 40 be 9e 54 f1 bd
       -0.14886717 0.3695451 -0.18784241 -0.117837176
000190 74 39 a7 3e 1c e2 41 3d 08 92 1c 3e 93 0a ee 3d
       0.3266102 0.047334775 0.15290082 0.116231106
0001a0 e2 53 ef 3d cd 44 85 3e 52 90 ab 3e 23 11 59 3d
       0.11685921 0.26029053 0.33508545 0.05299486
0001b0 c2 8f 4f 3d 94 a2 bf 3d 6f dc 86 be 66 5a 65 be
       0.050674208 0.09357181 -0.26340052 -0.22397766
0001c0 d2 b9 c0 be eb 67 66 be 99 0e 36 3e 2c 40 82 3e
       -0.3764177 -0.22500579 0.17779006 0.25439584
0001d0 91 ea 37 3e 51 f7 8d be 23 83 27 3d 15 69 04 be
       0.17960574 -0.2772775 0.040896546 -0.1293071
0001e0 6b dc 6d 3e dc 48 88 be 73 dc 93 be 13 72 20 be
       0.23228614 -0.26618087 -0.28879127 -0.15668516
0001f0 3d 78 78 3e db 59 88 be 60 63 b0 3e 24 d6 ab 3d
       0.24264617 -0.26631054 0.34450817 0.083904535

fc2.weight f4 [64, 128]
000000 f4 9d 1e bd 68 1e 3c bc 8e a4 90 bd 7b 32 94 3d
       -0.038724855 -0.011481859 -0.07062636 0.07236191
000010 b3 ca e7 3c 51 67 a0 bd d0 f4 86 bd bd 69 98 3d
       0.028294897 -0.07832206 -0.06589663 0.07442043
000020 83 33 2b bd 0c bc 31 bc a1 6f 7f 3d c8 96 48 bd
       -0.041797172 -0.0108480565 0.062362317 -0.04897192
000030 8e 5d 97 bd fc 88 80 bd ba e2 8a bd 97 51 4d bd
       -0.07390891 -0.06276128 -0.06781526 -0.05012664
000040 29 9e 8f 3c 88 53 a2 bd 3d 54 9a bd c7 f6 2d bd
       0.017531471 -0.079260886 -0.075355984 -0.042471673
000050 4e 42 d5 bc 44 5f bc bd 26 ae a9 bb a3 e6 8c 3c
       -0.026032593 -0.09197858 -0.005178231 0.01719982
000060 6d f8 f1 3c 0b 39 5d bd 2e 9e ad 3d 05 97 a8 3d
       0.029537404 -0.05400948 0.08477436 0.0823193
000070 a5 db 9f 3d 75 3c 12 bd fd 4f 94 3d c0 b5 ba bd
       0.07805566 -0.035702188 0.07241819 -0.09116697
000080 97 c2 b3 bd 25 30 4b 3d 5c 85 7e bd cc ff 94 3d
       -0.087773494 0.04960646 -0.0621389 0.07275352
000090 0c cd d1 3c 0a ff a0 3d 45 6c ac bd 9f eb 8f bd
       0.02561047 0.07861145 -0.08419088 -0.07027363
0000a0 89 1a a1 bd ea e8 2d 3d 35 8c 8e 3d a6 02 88 bd
       -0.07866389 0.042458452 0.06960336 -0.0664113
0000b0 a4 c1 88 3c 77 46 8b 3d fe 94 1f 3c a1 59 9f bd
       0.016693898 0.068005495 0.009740112 -0.07780767
0000c0 d4 f6 a1 bd 2c d5 15 bd b6 ed 76 3d 55 68 9e bd
       -0.07908407 -0.03658025 0.060285293 -0.077347435
0000d0 2b 9c 9a 3c c5 e9 82 bd c2 0a 6a bd 30 8b df 3c
       0.018873295 -0.06392244 -0.057139166 0.02728805
0000e0 ce ad 02 bd b0 5c 9e bd 2e e9 72 3c cb e8 60 3d
       -0.031904034 -0.077325225 0.014826102 0.05490951
0000f0 06 1f 4a bc 22 c0 b9 3b 87 98 96 3d 53 66 2c bd
       -0.012336498 0.005668656 0.07353311 -0.04208977
000100 85 30 a5 ba 97 b6 68 3d 0e 65 eb bb f9 f3 61 3d
       -0.0012602961 0.056814756 -0.0071836775 0.05516431
000110 dd ff 83 bc 2a e2 9f bd 11 d1 8e 3d e8 49 73 3d
       -0.016113216 -0.07806809 0.0697347 0.059396654
000120 bc 2b c1 bd 5a 5a 97 3d 85 c8 a6 b9 57 a5 b5 bd
       -0.0943217 0.0739028 -0.00031811386 -0.08869427
000130 b7 33 5f 3d 10 d8 91 3d 36 3b 43 3d 6d dd 7c 3d
       0.05449268 0.07121289 0.04766389 0.061734606
000140 f8 bf 77 bd ee 32 56 bd 9f ae 02 3d 7a 7a f1 3c
       -0.06048581 -0.052294664 0.031904813 0.029477347
000150 b7 2a 88 3c 85 a2 53 3b f4 f9 87 bd 55 59 00 bd
       0.01662193 0.0032292914 -0.06639472 -0.031335194
000160 93 57 99 3d 2f cd 2a bd d7 69 bc bd 23 f7 81 bd
       0.074874066 -0.041699585 -0.09199875 -0.06345966
000170 98 76 03 bd 0b fd 87 bd f1 9b 46 bd a3 15 d4 bc
       -0.03209552 -0.06640061 -0.04848856 -0.025889223
000180 92 dd 6f 3c 11 a4 68 3a 42 ed ab bd 1b 74 a9 bc
       0.014640229 0.00088745455 -0.08394863 -0.020685246
000190 ef 47 73 3c 0f ae 01 3d b4 48 c3 bd aa df 1f 3c
       0.014848693 0.031660136 -0.095353514 0.0097579155
0001a0 0b 30 a1 3d ed f7 11 bd 03 28 20 bd a2 bc 9d 3d
       0.078704916 -0.03563683 -0.03910066 0.077019945
0001b0 ab f2 7d 3d 0a 94 30 3d 55 9a ef bb 5c 9b a5 bc
       0.061999004 0.04310993 -0.007312099 -0.020215683
0001c0 89 4a b9 3c 40 1e b4 bd 55 a8 36 3c 8c 87 88 bd
       0.022618549 -0.08794832 0.011148532 -0.066664785
0001d0 79 a9 e3 3b a9 22 40 bd 17 d4 cb 3c 00 22 1d 3d
       0.006947693 -0.046908055 0.024881406 0.038362503
0001e0 d0 3e 42 ba e7 66 57 3d 92 46 1f 3d 21 5e 8c 3c
       -0.00074098725 0.05258837 0.03888566 0.017134728
0001f0 ca 3e 78 bd 29 be 2c bd a5 a4 c2 3c ce 3e 8d 3c
       -0.060606755 -0.04217354 0.02376015 0.017241862
000200 98 75 39 3b 71 e1 83 bd 1d 7d fc 3d 80 d6 ae 3a
       0.002829885 -0.06439484 0.12328551 0.0013339072
000210 a3 50 95 3b 4f b5 07 bd c4 1e 36 3d 00 b6 10 3d
       0.004556732 -0.033131894 0.044462934 0.03532982
000220 e9 b7 11 bd 5b 2a ee bd d6 77 9f bd c1 ed 49 bd
       -0.03557578 -0.116291724 -0.07786529 -0.049299005
000230 9e 70 fe 3d 2b 0d 8b bd 59 14 0a be a8 07 0f be
       0.12423824 -0.06789621 -0.13484325 -0.13967764
000240 44 ce e6 bc 55 fb b7 bd c8 97 fd 3c f5 73 e9 3c
       -0.028174527 -0.08983485 0.030956164 0.028497675
000250 92 06 e8 3d c0 7c 4b 3d 65 5e 4e 3c d8 c7 a8 3c
       0.11329378 0.049679518 0.012595748 0.020603105
000260 b6 d7 af 3d 6d 6b 01 3d 5a 05 84 bc b6 37 16 be
       0.085860655 0.03159659 -0.016115833 -0.1466969
000270 a1 ae 02 3d 86 fc f8 bd 65 cc 16 be 24 62 08 3d
       0.03190482 -0.1215754 -0.14726408 0.03329672
000280 5f 03 89 bc c4 1d 83 bd 69 fd 8b bd 79 02 cf bd
       -0.01672524 -0.06402162 -0.068354435 -0.101078935
000290 da b7 64 bb fd 8f a5 3d 04 59 55 ba 62 2e a4 bd
       -0.0034899623 0.08084104 -0.00081385695 -0.08016659
0002a0 e9 99 11 3e d4 16 8b 3d a6 b2 99 3d b9 75 63 bd
       0.14218868 0.067914635 0.075047776 -0.05553219
0002b0 89 3e 37 3e 0f 67 e1 3b 7a 05 e4 bb a4 f2 cd bc
       0.17894949 0.0068787406 -0.0069586607 -0.025140114
0002c0 b5 0b d9 3c 50 64 cc bb d8 b9 3d 3d 7c f4 ed 3d
       0.02649484 -0.006237544 0.046319813 0.11618897
0002d0 ba 35 20 3c e4 84 c0 bd 20 91 8d bd e5 39 6d bb
       0.009778434 -0.09400347 -0.06912446 -0.0036197838
0002e0 39 76 68 bc 46 de 88 bd 12 e6 23 3c b1 17 ac bd
       -0.014188343 -0.0668302 0.0100035835 -0.08402956
0002f0 b5 76 10 bd df 62 f8 bd c6 6a d1 3c df d0 24 bd
       -0.035269458 -0.12128233 0.025563609 -0.040238257
000300 ed 26 b7 3d 13 65 f8 3d 4b c0 37 3c 2b 26 3a bd
       0.089429714 0.121286534 0.01121528 -0.045446556
000310 ac 1d da 3d 5e ef 4f bd ee 75 ab bd 6b cd 15 3d
       0.10650191 -0.050765388 -0.08372103 0.036572855
000320 5f 6b ec bc 52 b9 9d bc 87 c0 39 3d 18 b4 9f 3b
       -0.028859792 -0.019253407 0.045349624 0.004873764
000330 51 d5 b8 3c 8d 0b 4f bd da 67 88 3d ac ba 24 3e
       0.022562655 -0.050548125 0.06660433 0.16086835
000340 24 fe dd bd 83 34 a1 bd e9 83 c2 bd 87 e6 ae b8
       -0.10839489 -0.07871344 -0.09497816 -8.3399056e-05
000350 88 a8 32 3d 32 ec 22 3d df 0f c2 3d 64 63 db 3d
       0.043617755 0.039776035 0.094756834 0.10712317
000360 9b 37 13 bb a5 7f 90 bd 42 46 8f 3d 72 1b 21 3e
       -0.0022463563 -0.07055596 0.069958225 0.15733126
000370 be 88 e2 3c 39 bc 4a 3e 21 7b 74 3d 3f f0 20 3e
       0.027653094 0.19798364 0.059687737 0.15716647
000380 af 06 ab bc 49 7f 08 3e e0 fa 3f 3d 59 33 b3 bc
       -0.02087721 0.13329805 0.046870112 -0.02187507
000390 71 9e e4 bd 40 6d d3 3c 67 40 80 bd d7 1d 02 bd
       -0.11163033 0.02580893 -0.06262284 -0.03176674
0003a0 cd 6c 3d 3c 54 02 6b bb 73 e2 ad 3c 51 33 d9 3b
       0.011561585 -0.0035859542 0.021226143 0.006628432
0003b0 12 10 98 3d e3 19 4c bd 6a 1d ab 3c f4 65 7b bd
       0.0742494 -0.049829375 0.02088805 -0.061376527
0003c0 db 2d 65 bd e5 da 54 bc d4 ff db 3d b2 41 de 3c
       -0.055951934 -0.012991642 0.10742155 0.027130935
0003d0 93 94 57 bd 25 29 71 bb 28 78 1b 3e e1 90 9e 3d
       -0.052631926 -0.0036798206 0.15182555 0.07742477
0003e0 ad 52 e2 3c fc 19 51 3d 1d 1b b2 3d 38 37 a4 3d
       0.027627314 0.05105017 0.08696578 0.08018345
0003f0 07 2c a9 3d 38 c2 c4 3d e4 04 0a 3e c5 da c8 3d
       0.08260351 0.09607357 0.13478428 0.09807352

fc2.bias f4 [64]
000000 1d c7 ae bd fc dd 64 bc 4f 64 91 3d e8 61 2e 3c
       -0.085340716 -0.013968941 0.070992105 0.01064346
000010 9c f4 5e bd ae 19 a2 3d 0a 61 c0 3d 24 44 64 3d
       -0.054432496 0.07915054 0.09393509 0.055729046
000020 18 fd a7 3d d1 ac 6d bd 02 d0 0b 3d 91 33 1d bd
       0.08202571 -0.05802614 0.03413392 -0.038379256
000030 88 dc 85 bd 40 51 14 bd 90 8e 18 3d 92 7b d0 3d
       -0.065362036 -0.0362103 0.037245333 0.10179819
000040 55 94 2d 3d ea 2b 49 3d 9e c7 31 3d 71 3c c6 3d
       0.04237779 0.049114145 0.04340326 0.09679497
000050 f2 74 f9 3d 08 87 b0 3d c7 ad ec bc 97 03 13 3c
       0.12180509 0.08619505 -0.028891457 0.008973024
000060 58 b1 84 bc e9 c7 c9 3d 1f 46 e8 bb 1b 2a 9e 3c
       -0.016197845 0.09852583 -0.007088437 0.019307187
000070 e6 99 3f 3d fe 6f ed bb e2 a8 77 bd 30 a4 9b bd
       0.04677763 -0.0072460165 -0.060463794 -0.07599676
000080 ff 8f 6e 3d db 42 19 3d 2f 01 c3 3c 35 f2 d6 3c
       0.058242794 0.037417274 0.023804275 0.02623854
000090 b4 87 cb bc 99 42 29 bc e3 0d a0 bc 6c b3 e1 3d
       -0.024844982 -0.0103308195 -0.019537872 0.1102055
0000a0 29 b1 42 3d 5d 41 9c bd a6 55 3e bd 64 4f 09 3d
       0.047532234 -0.076296546 -0.0464684 0.03352298
0000b0 a4 57 bd 3d 55 9b 97 3d a3 48 3f bd ed 7f ba 3d
       0.09245232 0.07402674 -0.04670013 0.09106431
0000c0 25 a1 90 3d f9 98 f5 3b 68 65 97 3d fb 91 96 bd
       0.07061986 0.0074950424 0.073923886 -0.07352062
0000d0 c1 d6 34 bd af 34 80 3c 7e 19 06 bc 87 a5 6f 3d
       -0.044150118 0.015650121 -0.008184789 0.05850747
0000e0 c7 91 96 3d 02 7d 6a 3d 61 2e d2 3c 86 21 9e bd
       0.073520236 0.057248123 0.02565688 -0.07721238
0000f0 18 57 75 3d 96 61 16 3c 05 a2 be bd 27 48 01 bd
       0.059897512 0.00917854 -0.093082465 -0.03156295

fc3.weight f4 [4, 64]
000000 ce 51 b6 bc e5 6d 8e bd 39 76 89 bd 31 8f 16 3d
       -0.022255804 -0.069545545 -0.06712002 0.03675765
000010 a3 3f 33 3d 7a 0b 95 bd d4 88 0b 3e 19 40 26 bd
       0.04376186 -0.072775796 0.13626415 -0.040588472
000020 3f 9d a7 bd f2 74 bf bd 2f cc 10 3d 9a d9 ba bd
       -0.08184289 -0.093484774 0.035350975 -0.091235355
000030 10 c7 6d 3c 80 4b cb 3d b7 95 45 3d f6 c0 9b bc
       0.014512792 0.0992651 0.048238482 -0.01901291
000040 37 9e 07 be a6 31 74 3d 80 b7 ee bd b3 50 29 be
       -0.13243948 0.05961766 -0.116560936 -0.1653469
000050 03 90 d0 bd 16 6b d9 3d c4 3d de bc 05 b7 13 be
       -0.10183718 0.10616128 -0.027129062 -0.14425285
000060 98 5e fb 3c bc 6e 8d bc 68 77 95 bd 75 fb d9 bd
       0.030684754 -0.017264716 -0.072981656 -0.10643665
000070 c9 bd 43 3d b6 69 a3 bd a7 cb 6d 3d 42 e3 1c 3d
       0.047788415 -0.07979147 0.058055546 0.038302667
000080 26 da 9f bd d8 12 ae bc 1b 93 f6 3c 22 a3 2f bd
       -0.078052804 -0.02124922 0.030099442 -0.042880185
000090 6a 61 9d bd 6c ba 8b 3d db ca 25 3d 1f ef 19 be
       -0.07684596 0.068226665 0.04047666 -0.15032624
0000a0 f8 80 a1 3c 30 dd 8a bd e0 a6 98 bd b2 2b ae 3c
       0.019714817 -0.067804694 -0.07453704 0.02126107
0000b0 d0 83 bf bd 2e c5 c5 3c 40 1a de bd 62 55 74 3d
       -0.09351313 0.024141874 -0.108448505 0.05965174
0000c0 64 81 c0 bd e1 cb 10 bc be 2a 9f bd 92 9c df bd
       -0.09399679 -0.008837671 -0.07771824 -0.10918535
0000d0 6a e1 8f bd df 61 19 be 07 90 a7 3d 89 9b 9b bd
       -0.07025416 -0.14978741 0.08181768 -0.07598025
0000e0 13 b5 dd 3d 01 6a 8f 3d 3a eb d6 bd 52 d3 32 bd
       0.10825553 0.070026405 -0.10494085 -0.043658562
0000f0 6e 56 cf bd d0 68 90 3d d3 e5 5b bc 3f 2d e4 bd
       -0.10123907 0.070512414 -0.013421494 -0.111414425
000100 7f e7 df 3d 2b ac 32 3d 35 e9 00 be 8d 9e ea 3d
       0.10932826 0.043621223 -0.12588961 0.114560224
000110 62 c6 34 be ed c1 b3 3d 4f c9 31 3e af 2a f3 bd
       -0.17653802 0.08777223 0.1736195 -0.118733756
000120 c8 86 fa 3d 57 c1 1e bd 01 8e 80 bd 71 a5 a8 bd
       0.12232739 -0.038758602 -0.06277085 -0.082346804
000130 96 9c 4d 3d e4 49 8b bd b6 d3 fe ba 44 0c 18 3e
       0.05019816 -0.06801203 -0.0019441757 0.14848429
000140 eb f3 3b be 16 e7 e0 bd 9a 8b 36 be ef 10 05 be
       -0.18354766 -0.10981576 -0.17826691 -0.12994741
000150 ea 48 e0 3c 23 cc 15 be 6c f5 07 3e 51 96 25 3e
       0.027378518 -0.14628653 0.13277215 0.16170622
000160 4d f7 54 3d f0 fd a7 3d 2d 71 55 3c 8a cb 3e be
       0.051993657 0.082027316 0.0130274715 -0.18632331
000170 3d bb b9 3c 12 eb 89 3d f8 8a 08 be f4 5d 71 bb
       0.02267229 0.06734289 -0.13334262 -0.0036829682
000180 c5 d9 f7 3c 05 f5 f7 3d 86 57 0c be 16 d5 c4 3d
       0.030255208 0.12107281 -0.13705263 0.096109554
000190 85 61 15 be cc 9a e5 3d 44 39 ac bd 14 1d 85 bd
       -0.14587982 0.11211166 -0.0840936 -0.06499687
0001a0 82 fa 1d bd e2 e6 3b bc 48 8d 77 3d 88 0d 28 be
       -0.03856898 -0.011468621 0.06043747 -0.16411412
0001b0 a8 81 fe 3d 21 2c d6 3d 3c 9e b9 3d 8b c0 2c 3e
       0.12427074 0.10457636 0.09063384 0.16870324
0001c0 00 c0 0d 3d 1a 44 bd 3d d6 c6 e4 3d fe 4b 9f 3d
       0.034606934 0.09241505 0.111707374 0.07778166
0001d0 9d 3d 8c 3d 0b f1 78 3d de c4 ab 3d 38 7b 88 3d
       0.06847689 0.06077675 0.08387159 0.06664127
0001e0 a7 61 93 3d 5b 84 e9 3d f8 cd dc bd 6f 74 c6 3d
       0.0719636 0.11402198 -0.10781473 0.09690177
0001f0 bd 1b 27 3e ff b9 30 3d 83 e4 8a bd 52 2e 1f bd
       0.16319175 0.04314613 -0.067818664 -0.038862534
000200 d7 a2 42 3c 48 b9 0f 3e 70 19 0b 3e a8 d1 39 be
       0.011879644 0.14035523 0.13583922 -0.18146384
000210 18 dd 12 be 1a 25 22 3d bd d7 9f bd 8a 63 c5 3d
       -0.14342153 0.039586164 -0.07804821 0.09638126
000220 38 a1 a9 3d a8 60 d6 bd 27 fd 9c 3d cc 99 01 bd
       0.08282703 -0.104676545 0.076654725 -0.031640813
000230 1b a6 6b 3d 99 4b 82 3d 8a 6c ae bd ec 0e 05 be
       0.057531457 0.06362075 -0.08516796 -0.12993973
000240 28 79 13 3e d4 17 33 3d 17 7d 76 3d 76 10 3b 3e
       0.14401686 0.043723896 0.06017789 0.18267998
000250 53 43 a2 3d 7c 1c 1a bd e9 88 da bd 81 fc fe 3d
       0.07922997 -0.03762482 -0.10670645 0.12450505
000260 37 82 2d be 7b 9d c7 3d 2d c8 56 3e 71 99 ee bd
       -0.16944204 0.09746834 0.20974799 -0.116503604
000270 0d 37 44 3e ad 78 17 bd a2 cd 30 3e 2d 26 c6 bc
       0.19161625 -0.03698032 0.17265943 -0.024188126
000280 6e cc e2 bd 5f cc 50 3d 83 74 14 3d 0c e0 13 bd
       -0.11074148 0.050976153 0.036243927 -0.03610234
000290 0e 7d 04 3e f7 5e a2 bc 16 dd 87 bd 53 74 16 3e
       0.1293833 -0.019820673 -0.06633966 0.14692812
0002a0 c1 0f 9b 3d 7b da cf bd cb 21 ce bd 3b 1f de 3d
       0.07571364 -0.10149094 -0.10065039 0.108458005
0002b0 3a 07 fd bd 52 65 20 3e 30 5c e5 bc 48 c5 18 3d
       -0.12354894 0.1566365 -0.02799806 0.037297517
0002c0 e7 5f 2f be 7c 5a 25 3e 24 8a 16 3e 3a 81 03 3c
       -0.17126428 0.16147798 0.14701134 0.0080264155
0002d0 83 83 76 3c ba 7f 48 3e 41 24 80 be 5b e7 17 3d
       0.015046003 0.19579974 -0.2502766 0.037085872
0002e0 9d be 4a be 12 2e 24 3d 7f f7 4a 3e b4 66 aa bc
       -0.19799276 0.040083 0.19820975 -0.020800926
0002f0 f8 19 d0 bd 8a cc 5f 3d 69 cf b0 3d 1d 7c a0 3d
       -0.10161203 0.054638423 0.0863331 0.07836173
000300 fc 42 de bd bd 05 4b be 22 ca 73 bd f5 27 77 bd
       -0.1085262 -0.19826408 -0.05951894 -0.06034084
000310 a3 39 3e 3c d2 aa 34 be db 0b cf 3d 5a a2 37 bc
       0.011610421 -0.17643288 0.10109683 -0.011208141
000320 5b da 04 be 25 2d 06 bd 86 54 a3 3c dd a9 c0 3d
       -0.12973921 -0.032757897 0.019937765 0.09407399
000330 ff fa a6 bd 83 d9 ec 3d 22 69 6d bd 18 fa 3d be
       -0.081533425 0.115649246 -0.05796159 -0.18552434
000340 dc 34 05 3e d4 04 92 3d 7b 20 0a 3e 74 a5 80 3d
       0.13008446 0.07129827 0.13488953 0.06281558
000350 82 b1 20 be ab 91 31 3e da 25 fc bd ae c9 8a bd
       -0.15692714 0.17340724 -0.12311907 -0.067767486
000360 bf 28 dd bd 2f 3d de bd 9c 46 e7 bc f3 ec 0e bc
       -0.10798787 -0.108515136 -0.028231911 -0.008723485
000370 f0 f1 47 be 77 e5 77 3a d6 f3 9b 3d d3 ed 12 bd
       -0.19525886 0.0009456495 0.076148674 -0.035871338
000380 4a 89 28 3d 2e b9 e0 bd 72 97 97 3d e2 35 d4 3d
       0.041146554 -0.1097282 0.07401933 0.1036184
000390 7a 33 01 3e 02 c5 00 3e 0b 27 d3 bd 1c 48 79 bd
       0.12617293 0.12575153 -0.10310181 -0.060859784
0003a0 a0 19 f0 bc d1 b5 0d 3e 90 1a 7c bd 61 9c 2c 3e
       -0.029309094 0.13838889 -0.06154877 0.16856529
0003b0 9b f1 5d bd 05 2a 27 bd f8 b3 45 3d 37 df a3 bc
       -0.05418549 -0.040811557 0.048267335 -0.020003898
0003c0 b2 9b 56 bd 67 e7 b9 bd 3b 32 56 be ea 7d ba 3d
       -0.052394576 -0.090773396 -0.20917599 0.091060475
0003d0 01 43 59 bd fb b5 2b bd 23 28 d2 3d 6f 71 e1 bd
       -0.053042416 -0.041921597 0.10261562 -0.11007964
0003e0 81 0c 7f 3c 56 ec a6 bd 4a 4d 0e bb 4e 4a d1 3c
       0.015566946 -0.08150546 -0.0021713548 0.025548127
0003f0 5a 86 f1 bc b2 1e 83 3d 5b b6 cf 3c 7a e7 da bd
       -0.02948301 0.06402339 0.025355509 -0.10688682

fc3.bias f4 [4]
000000 26 d3 51 3c 4a a5 eb 3d 31 70 b1 bd b7 04 6e 3d
       0.012806689 0.11506136 -0.08663977 0.058109965
